…
FEATURE_FILE_TRAINING: /scratch/arbint/input_files/training/feature_w.csv
LABEL_FILE_TRAINING: /scratch/arbint/input_files/training/label_w.csv
FEATURE_FILE_VALIDATION: /scratch/arbint/input_files/validation/feature_w.csv
LABEL_FILE_VALIDATION: /scratch/arbint/input_files/validation/label_w.csv
WEIGHTS: [ 0.4 45.   4. ]

__________________________________________________________________________________________________
Layer (type)                    Output Shape         Param #     Connected to                     
==================================================================================================
input_1 (InputLayer)            (None, 224, 224, 1)  0                                            
__________________________________________________________________________________________________
conv2d_1 (Conv2D)               (None, 224, 224, 48) 480         input_1[0][0]                    
__________________________________________________________________________________________________
activation_1 (Activation)       (None, 224, 224, 48) 0           conv2d_1[0][0]                   
__________________________________________________________________________________________________
batch_normalization_1 (BatchNor (None, 224, 224, 48) 192         activation_1[0][0]               
__________________________________________________________________________________________________
conv2d_2 (Conv2D)               (None, 224, 224, 16) 6928        batch_normalization_1[0][0]      
__________________________________________________________________________________________________
dropout_1 (Dropout)             (None, 224, 224, 16) 0           conv2d_2[0][0]                   
__________________________________________________________________________________________________
concatenate_1 (Concatenate)     (None, 224, 224, 64) 0           conv2d_1[0][0]                   
                                                                 dropout_1[0][0]                  
__________________________________________________________________________________________________
activation_2 (Activation)       (None, 224, 224, 64) 0           concatenate_1[0][0]              
__________________________________________________________________________________________________
batch_normalization_2 (BatchNor (None, 224, 224, 64) 256         activation_2[0][0]               
__________________________________________________________________________________________________
conv2d_3 (Conv2D)               (None, 224, 224, 16) 9232        batch_normalization_2[0][0]      
__________________________________________________________________________________________________
dropout_2 (Dropout)             (None, 224, 224, 16) 0           conv2d_3[0][0]                   
__________________________________________________________________________________________________
concatenate_2 (Concatenate)     (None, 224, 224, 80) 0           concatenate_1[0][0]              
                                                                 dropout_2[0][0]                  
__________________________________________________________________________________________________
activation_3 (Activation)       (None, 224, 224, 80) 0           concatenate_2[0][0]              
__________________________________________________________________________________________________
batch_normalization_3 (BatchNor (None, 224, 224, 80) 320         activation_3[0][0]               
__________________________________________________________________________________________________
conv2d_4 (Conv2D)               (None, 224, 224, 16) 11536       batch_normalization_3[0][0]      
__________________________________________________________________________________________________
dropout_3 (Dropout)             (None, 224, 224, 16) 0           conv2d_4[0][0]                   
__________________________________________________________________________________________________
concatenate_3 (Concatenate)     (None, 224, 224, 96) 0           concatenate_2[0][0]              
                                                                 dropout_3[0][0]                  
__________________________________________________________________________________________________
activation_4 (Activation)       (None, 224, 224, 96) 0           concatenate_3[0][0]              
__________________________________________________________________________________________________
batch_normalization_4 (BatchNor (None, 224, 224, 96) 384         activation_4[0][0]               
__________________________________________________________________________________________________
conv2d_5 (Conv2D)               (None, 224, 224, 16) 13840       batch_normalization_4[0][0]      
__________________________________________________________________________________________________
dropout_4 (Dropout)             (None, 224, 224, 16) 0           conv2d_5[0][0]                   
__________________________________________________________________________________________________
concatenate_4 (Concatenate)     (None, 224, 224, 112 0           concatenate_3[0][0]              
                                                                 dropout_4[0][0]                  
__________________________________________________________________________________________________
…
dropout_5 (Dropout)             (None, 112, 112, 112 0           conv2d_6[0][0]                   
__________________________________________________________________________________________________
activation_6 (Activation)       (None, 112, 112, 112 0           dropout_5[0][0]                  
__________________________________________________________________________________________________
batch_normalization_6 (BatchNor (None, 112, 112, 112 448         activation_6[0][0]               
__________________________________________________________________________________________________
conv2d_7 (Conv2D)               (None, 112, 112, 16) 16144       batch_normalization_6[0][0]      
__________________________________________________________________________________________________
dropout_6 (Dropout)             (None, 112, 112, 16) 0           conv2d_7[0][0]                   
__________________________________________________________________________________________________
concatenate_5 (Concatenate)     (None, 112, 112, 128 0           dropout_5[0][0]                  
                                                                 dropout_6[0][0]                  
__________________________________________________________________________________________________
activation_7 (Activation)       (None, 112, 112, 128 0           concatenate_5[0][0]              
__________________________________________________________________________________________________
batch_normalization_7 (BatchNor (None, 112, 112, 128 512         activation_7[0][0]               
__________________________________________________________________________________________________
conv2d_8 (Conv2D)               (None, 112, 112, 16) 18448       batch_normalization_7[0][0]      
__________________________________________________________________________________________________
dropout_7 (Dropout)             (None, 112, 112, 16) 0           conv2d_8[0][0]                   
__________________________________________________________________________________________________
concatenate_6 (Concatenate)     (None, 112, 112, 144 0           concatenate_5[0][0]              
                                                                 dropout_7[0][0]                  
__________________________________________________________________________________________________
activation_8 (Activation)       (None, 112, 112, 144 0           concatenate_6[0][0]              
__________________________________________________________________________________________________
batch_normalization_8 (BatchNor (None, 112, 112, 144 576         activation_8[0][0]               
__________________________________________________________________________________________________
conv2d_9 (Conv2D)               (None, 112, 112, 16) 20752       batch_normalization_8[0][0]      
__________________________________________________________________________________________________
dropout_8 (Dropout)             (None, 112, 112, 16) 0           conv2d_9[0][0]                   
__________________________________________________________________________________________________
concatenate_7 (Concatenate)     (None, 112, 112, 160 0           concatenate_6[0][0]              
                                                                 dropout_8[0][0]                  
__________________________________________________________________________________________________
activation_9 (Activation)       (None, 112, 112, 160 0           concatenate_7[0][0]              
__________________________________________________________________________________________________
batch_normalization_9 (BatchNor (None, 112, 112, 160 640         activation_9[0][0]               
__________________________________________________________________________________________________
conv2d_10 (Conv2D)              (None, 112, 112, 16) 23056       batch_normalization_9[0][0]      
__________________________________________________________________________________________________
dropout_9 (Dropout)             (None, 112, 112, 16) 0           conv2d_10[0][0]                  
__________________________________________________________________________________________________
concatenate_8 (Concatenate)     (None, 112, 112, 176 0           concatenate_7[0][0]              
                                                                 dropout_9[0][0]                  
__________________________________________________________________________________________________
activation_10 (Activation)      (None, 112, 112, 176 0           concatenate_8[0][0]              
__________________________________________________________________________________________________
batch_normalization_10 (BatchNo (None, 112, 112, 176 704         activation_10[0][0]              
__________________________________________________________________________________________________
conv2d_11 (Conv2D)              (None, 112, 112, 16) 25360       batch_normalization_10[0][0]     
__________________________________________________________________________________________________
dropout_10 (Dropout)            (None, 112, 112, 16) 0           conv2d_11[0][0]                  
__________________________________________________________________________________________________
concatenate_9 (Concatenate)     (None, 112, 112, 192 0           concatenate_8[0][0]              
                                                                 dropout_10[0][0]                 
__________________________________________________________________________________________________
activation_11 (Activation)      (None, 112, 112, 192 0           concatenate_9[0][0]              
__________________________________________________________________________________________________
batch_normalization_11 (BatchNo (None, 112, 112, 192 768         activation_11[0][0]              
__________________________________________________________________________________________________
conv2d_12 (Conv2D)              (None, 56, 56, 192)  37056       batch_normalization_11[0][0]     
__________________________________________________________________________________________________
dropout_11 (Dropout)            (None, 56, 56, 192)  0           conv2d_12[0][0]                  
__________________________________________________________________________________________________
activation_12 (Activation)      (None, 56, 56, 192)  0           dropout_11[0][0]                 
__________________________________________________________________________________________________
batch_normalization_12 (BatchNo (None, 56, 56, 192)  768         activation_12[0][0]              
__________________________________________________________________________________________________
conv2d_13 (Conv2D)              (None, 56, 56, 16)   27664       batch_normalization_12[0][0]     
__________________________________________________________________________________________________
dropout_12 (Dropout)            (None, 56, 56, 16)   0           conv2d_13[0][0]                  
__________________________________________________________________________________________________
concatenate_10 (Concatenate)    (None, 56, 56, 208)  0           dropout_11[0][0]                 
                                                                 dropout_12[0][0]                 
__________________________________________________________________________________________________
activation_13 (Activation)      (None, 56, 56, 208)  0           concatenate_10[0][0]             
__________________________________________________________________________________________________
batch_normalization_13 (BatchNo (None, 56, 56, 208)  832         activation_13[0][0]              
__________________________________________________________________________________________________
conv2d_14 (Conv2D)              (None, 56, 56, 16)   29968       batch_normalization_13[0][0]     
__________________________________________________________________________________________________
dropout_13 (Dropout)            (None, 56, 56, 16)   0           conv2d_14[0][0]                  
__________________________________________________________________________________________________
concatenate_11 (Concatenate)    (None, 56, 56, 224)  0           concatenate_10[0][0]             
                                                                 dropout_13[0][0]                 
__________________________________________________________________________________________________
activation_14 (Activation)      (None, 56, 56, 224)  0           concatenate_11[0][0]             
__________________________________________________________________________________________________
batch_normalization_14 (BatchNo (None, 56, 56, 224)  896         activation_14[0][0]              
__________________________________________________________________________________________________
conv2d_15 (Conv2D)              (None, 56, 56, 16)   32272       batch_normalization_14[0][0]     
__________________________________________________________________________________________________
dropout_14 (Dropout)            (None, 56, 56, 16)   0           conv2d_15[0][0]                  
__________________________________________________________________________________________________
concatenate_12 (Concatenate)    (None, 56, 56, 240)  0           concatenate_11[0][0]             
                                                                 dropout_14[0][0]                 
__________________________________________________________________________________________________
activation_15 (Activation)      (None, 56, 56, 240)  0           concatenate_12[0][0]             
__________________________________________________________________________________________________
batch_normalization_15 (BatchNo (None, 56, 56, 240)  960         activation_15[0][0]              
__________________________________________________________________________________________________
conv2d_16 (Conv2D)              (None, 56, 56, 16)   34576       batch_normalization_15[0][0]     
__________________________________________________________________________________________________
dropout_15 (Dropout)            (None, 56, 56, 16)   0           conv2d_16[0][0]                  
__________________________________________________________________________________________________
concatenate_13 (Concatenate)    (None, 56, 56, 256)  0           concatenate_12[0][0]             
                                                                 dropout_15[0][0]                 
__________________________________________________________________________________________________
activation_16 (Activation)      (None, 56, 56, 256)  0           concatenate_13[0][0]             
__________________________________________________________________________________________________
batch_normalization_16 (BatchNo (None, 56, 56, 256)  1024        activation_16[0][0]              
__________________________________________________________________________________________________
conv2d_17 (Conv2D)              (None, 56, 56, 16)   36880       batch_normalization_16[0][0]     
__________________________________________________________________________________________________
dropout_16 (Dropout)            (None, 56, 56, 16)   0           conv2d_17[0][0]                  
__________________________________________________________________________________________________
concatenate_14 (Concatenate)    (None, 56, 56, 272)  0           concatenate_13[0][0]             
                                                                 dropout_16[0][0]                 
__________________________________________________________________________________________________
activation_17 (Activation)      (None, 56, 56, 272)  0           concatenate_14[0][0]             
__________________________________________________________________________________________________
batch_normalization_17 (BatchNo (None, 56, 56, 272)  1088        activation_17[0][0]              
__________________________________________________________________________________________________
conv2d_18 (Conv2D)              (None, 56, 56, 16)   39184       batch_normalization_17[0][0]     
__________________________________________________________________________________________________
dropout_17 (Dropout)            (None, 56, 56, 16)   0           conv2d_18[0][0]                  
__________________________________________________________________________________________________
concatenate_15 (Concatenate)    (None, 56, 56, 288)  0           concatenate_14[0][0]             
                                                                 dropout_17[0][0]                 
__________________________________________________________________________________________________
activation_18 (Activation)      (None, 56, 56, 288)  0           concatenate_15[0][0]             
__________________________________________________________________________________________________
batch_normalization_18 (BatchNo (None, 56, 56, 288)  1152        activation_18[0][0]              
__________________________________________________________________________________________________
conv2d_19 (Conv2D)              (None, 56, 56, 16)   41488       batch_normalization_18[0][0]     
__________________________________________________________________________________________________
dropout_18 (Dropout)            (None, 56, 56, 16)   0           conv2d_19[0][0]                  
__________________________________________________________________________________________________
concatenate_16 (Concatenate)    (None, 56, 56, 304)  0           concatenate_15[0][0]             
                                                                 dropout_18[0][0]                 
__________________________________________________________________________________________________
activation_19 (Activation)      (None, 56, 56, 304)  0           concatenate_16[0][0]             
__________________________________________________________________________________________________
batch_normalization_19 (BatchNo (None, 56, 56, 304)  1216        activation_19[0][0]              
__________________________________________________________________________________________________
conv2d_20 (Conv2D)              (None, 28, 28, 304)  92720       batch_normalization_19[0][0]     
__________________________________________________________________________________________________
dropout_19 (Dropout)            (None, 28, 28, 304)  0           conv2d_20[0][0]                  
__________________________________________________________________________________________________
activation_20 (Activation)      (None, 28, 28, 304)  0           dropout_19[0][0]                 
__________________________________________________________________________________________________
batch_normalization_20 (BatchNo (None, 28, 28, 304)  1216        activation_20[0][0]              
__________________________________________________________________________________________________
conv2d_21 (Conv2D)              (None, 28, 28, 16)   43792       batch_normalization_20[0][0]     
__________________________________________________________________________________________________
dropout_20 (Dropout)            (None, 28, 28, 16)   0           conv2d_21[0][0]                  
__________________________________________________________________________________________________
concatenate_17 (Concatenate)    (None, 28, 28, 320)  0           dropout_19[0][0]                 
                                                                 dropout_20[0][0]                 
__________________________________________________________________________________________________
activation_21 (Activation)      (None, 28, 28, 320)  0           concatenate_17[0][0]             
__________________________________________________________________________________________________
batch_normalization_21 (BatchNo (None, 28, 28, 320)  1280        activation_21[0][0]              
__________________________________________________________________________________________________
conv2d_22 (Conv2D)              (None, 28, 28, 16)   46096       batch_normalization_21[0][0]     
__________________________________________________________________________________________________
dropout_21 (Dropout)            (None, 28, 28, 16)   0           conv2d_22[0][0]                  
__________________________________________________________________________________________________
concatenate_18 (Concatenate)    (None, 28, 28, 336)  0           concatenate_17[0][0]             
                                                                 dropout_21[0][0]                 
__________________________________________________________________________________________________
activation_22 (Activation)      (None, 28, 28, 336)  0           concatenate_18[0][0]             
__________________________________________________________________________________________________
batch_normalization_22 (BatchNo (None, 28, 28, 336)  1344        activation_22[0][0]              
__________________________________________________________________________________________________
conv2d_23 (Conv2D)              (None, 28, 28, 16)   48400       batch_normalization_22[0][0]     
__________________________________________________________________________________________________
dropout_22 (Dropout)            (None, 28, 28, 16)   0           conv2d_23[0][0]                  
__________________________________________________________________________________________________
concatenate_19 (Concatenate)    (None, 28, 28, 352)  0           concatenate_18[0][0]             
                                                                 dropout_22[0][0]                 
__________________________________________________________________________________________________
activation_23 (Activation)      (None, 28, 28, 352)  0           concatenate_19[0][0]             
__________________________________________________________________________________________________
batch_normalization_23 (BatchNo (None, 28, 28, 352)  1408        activation_23[0][0]              
__________________________________________________________________________________________________
conv2d_24 (Conv2D)              (None, 28, 28, 16)   50704       batch_normalization_23[0][0]     
__________________________________________________________________________________________________
dropout_23 (Dropout)            (None, 28, 28, 16)   0           conv2d_24[0][0]                  
__________________________________________________________________________________________________
concatenate_20 (Concatenate)    (None, 28, 28, 368)  0           concatenate_19[0][0]             
                                                                 dropout_23[0][0]                 
__________________________________________________________________________________________________
activation_24 (Activation)      (None, 28, 28, 368)  0           concatenate_20[0][0]             
__________________________________________________________________________________________________
batch_normalization_24 (BatchNo (None, 28, 28, 368)  1472        activation_24[0][0]              
__________________________________________________________________________________________________
conv2d_25 (Conv2D)              (None, 28, 28, 16)   53008       batch_normalization_24[0][0]     
__________________________________________________________________________________________________
dropout_24 (Dropout)            (None, 28, 28, 16)   0           conv2d_25[0][0]                  
__________________________________________________________________________________________________
concatenate_21 (Concatenate)    (None, 28, 28, 384)  0           concatenate_20[0][0]             
                                                                 dropout_24[0][0]                 
__________________________________________________________________________________________________
activation_25 (Activation)      (None, 28, 28, 384)  0           concatenate_21[0][0]             
__________________________________________________________________________________________________
batch_normalization_25 (BatchNo (None, 28, 28, 384)  1536        activation_25[0][0]              
__________________________________________________________________________________________________
conv2d_26 (Conv2D)              (None, 28, 28, 16)   55312       batch_normalization_25[0][0]     
__________________________________________________________________________________________________
dropout_25 (Dropout)            (None, 28, 28, 16)   0           conv2d_26[0][0]                  
__________________________________________________________________________________________________
concatenate_22 (Concatenate)    (None, 28, 28, 400)  0           concatenate_21[0][0]             
                                                                 dropout_25[0][0]                 
__________________________________________________________________________________________________
activation_26 (Activation)      (None, 28, 28, 400)  0           concatenate_22[0][0]             
__________________________________________________________________________________________________
batch_normalization_26 (BatchNo (None, 28, 28, 400)  1600        activation_26[0][0]              
__________________________________________________________________________________________________
conv2d_27 (Conv2D)              (None, 28, 28, 16)   57616       batch_normalization_26[0][0]     
__________________________________________________________________________________________________
dropout_26 (Dropout)            (None, 28, 28, 16)   0           conv2d_27[0][0]                  
__________________________________________________________________________________________________
concatenate_23 (Concatenate)    (None, 28, 28, 416)  0           concatenate_22[0][0]             
                                                                 dropout_26[0][0]                 
__________________________________________________________________________________________________
activation_27 (Activation)      (None, 28, 28, 416)  0           concatenate_23[0][0]             
__________________________________________________________________________________________________
batch_normalization_27 (BatchNo (None, 28, 28, 416)  1664        activation_27[0][0]              
__________________________________________________________________________________________________
conv2d_28 (Conv2D)              (None, 28, 28, 16)   59920       batch_normalization_27[0][0]     
__________________________________________________________________________________________________
dropout_27 (Dropout)            (None, 28, 28, 16)   0           conv2d_28[0][0]                  
__________________________________________________________________________________________________
concatenate_24 (Concatenate)    (None, 28, 28, 432)  0           concatenate_23[0][0]             
                                                                 dropout_27[0][0]                 
__________________________________________________________________________________________________
activation_28 (Activation)      (None, 28, 28, 432)  0           concatenate_24[0][0]             
__________________________________________________________________________________________________
batch_normalization_28 (BatchNo (None, 28, 28, 432)  1728        activation_28[0][0]              
__________________________________________________________________________________________________
conv2d_29 (Conv2D)              (None, 28, 28, 16)   62224       batch_normalization_28[0][0]     
__________________________________________________________________________________________________
dropout_28 (Dropout)            (None, 28, 28, 16)   0           conv2d_29[0][0]                  
__________________________________________________________________________________________________
concatenate_25 (Concatenate)    (None, 28, 28, 448)  0           concatenate_24[0][0]             
                                                                 dropout_28[0][0]                 
__________________________________________________________________________________________________
activation_29 (Activation)      (None, 28, 28, 448)  0           concatenate_25[0][0]             
__________________________________________________________________________________________________
batch_normalization_29 (BatchNo (None, 28, 28, 448)  1792        activation_29[0][0]              
__________________________________________________________________________________________________
conv2d_30 (Conv2D)              (None, 28, 28, 16)   64528       batch_normalization_29[0][0]     
__________________________________________________________________________________________________
dropout_29 (Dropout)            (None, 28, 28, 16)   0           conv2d_30[0][0]                  
__________________________________________________________________________________________________
concatenate_26 (Concatenate)    (None, 28, 28, 464)  0           concatenate_25[0][0]             
                                                                 dropout_29[0][0]                 
__________________________________________________________________________________________________
activation_30 (Activation)      (None, 28, 28, 464)  0           concatenate_26[0][0]             
__________________________________________________________________________________________________
batch_normalization_30 (BatchNo (None, 28, 28, 464)  1856        activation_30[0][0]              
__________________________________________________________________________________________________
conv2d_31 (Conv2D)              (None, 14, 14, 464)  215760      batch_normalization_30[0][0]     
__________________________________________________________________________________________________
dropout_30 (Dropout)            (None, 14, 14, 464)  0           conv2d_31[0][0]                  
__________________________________________________________________________________________________
activation_31 (Activation)      (None, 14, 14, 464)  0           dropout_30[0][0]                 
__________________________________________________________________________________________________
batch_normalization_31 (BatchNo (None, 14, 14, 464)  1856        activation_31[0][0]              
__________________________________________________________________________________________________
conv2d_32 (Conv2D)              (None, 14, 14, 16)   66832       batch_normalization_31[0][0]     
__________________________________________________________________________________________________
dropout_31 (Dropout)            (None, 14, 14, 16)   0           conv2d_32[0][0]                  
__________________________________________________________________________________________________
concatenate_27 (Concatenate)    (None, 14, 14, 480)  0           dropout_30[0][0]                 
                                                                 dropout_31[0][0]                 
__________________________________________________________________________________________________
activation_32 (Activation)      (None, 14, 14, 480)  0           concatenate_27[0][0]             
__________________________________________________________________________________________________
batch_normalization_32 (BatchNo (None, 14, 14, 480)  1920        activation_32[0][0]              
__________________________________________________________________________________________________
conv2d_33 (Conv2D)              (None, 14, 14, 16)   69136       batch_normalization_32[0][0]     
__________________________________________________________________________________________________
dropout_32 (Dropout)            (None, 14, 14, 16)   0           conv2d_33[0][0]                  
__________________________________________________________________________________________________
concatenate_28 (Concatenate)    (None, 14, 14, 496)  0           concatenate_27[0][0]             
                                                                 dropout_32[0][0]                 
__________________________________________________________________________________________________
activation_33 (Activation)      (None, 14, 14, 496)  0           concatenate_28[0][0]             
__________________________________________________________________________________________________
batch_normalization_33 (BatchNo (None, 14, 14, 496)  1984        activation_33[0][0]              
__________________________________________________________________________________________________
conv2d_34 (Conv2D)              (None, 14, 14, 16)   71440       batch_normalization_33[0][0]     
__________________________________________________________________________________________________
dropout_33 (Dropout)            (None, 14, 14, 16)   0           conv2d_34[0][0]                  
__________________________________________________________________________________________________
concatenate_29 (Concatenate)    (None, 14, 14, 512)  0           concatenate_28[0][0]             
                                                                 dropout_33[0][0]                 
__________________________________________________________________________________________________
activation_34 (Activation)      (None, 14, 14, 512)  0           concatenate_29[0][0]             
__________________________________________________________________________________________________
batch_normalization_34 (BatchNo (None, 14, 14, 512)  2048        activation_34[0][0]              
__________________________________________________________________________________________________
conv2d_35 (Conv2D)              (None, 14, 14, 16)   73744       batch_normalization_34[0][0]     
__________________________________________________________________________________________________
dropout_34 (Dropout)            (None, 14, 14, 16)   0           conv2d_35[0][0]                  
__________________________________________________________________________________________________
concatenate_30 (Concatenate)    (None, 14, 14, 528)  0           concatenate_29[0][0]             
                                                                 dropout_34[0][0]                 
__________________________________________________________________________________________________
activation_35 (Activation)      (None, 14, 14, 528)  0           concatenate_30[0][0]             
__________________________________________________________________________________________________
batch_normalization_35 (BatchNo (None, 14, 14, 528)  2112        activation_35[0][0]              
__________________________________________________________________________________________________
conv2d_36 (Conv2D)              (None, 14, 14, 16)   76048       batch_normalization_35[0][0]     
__________________________________________________________________________________________________
dropout_35 (Dropout)            (None, 14, 14, 16)   0           conv2d_36[0][0]                  
__________________________________________________________________________________________________
concatenate_31 (Concatenate)    (None, 14, 14, 544)  0           concatenate_30[0][0]             
                                                                 dropout_35[0][0]                 
__________________________________________________________________________________________________
activation_36 (Activation)      (None, 14, 14, 544)  0           concatenate_31[0][0]             
__________________________________________________________________________________________________
batch_normalization_36 (BatchNo (None, 14, 14, 544)  2176        activation_36[0][0]              
__________________________________________________________________________________________________
conv2d_37 (Conv2D)              (None, 14, 14, 16)   78352       batch_normalization_36[0][0]     
__________________________________________________________________________________________________
dropout_36 (Dropout)            (None, 14, 14, 16)   0           conv2d_37[0][0]                  
__________________________________________________________________________________________________
concatenate_32 (Concatenate)    (None, 14, 14, 560)  0           concatenate_31[0][0]             
                                                                 dropout_36[0][0]                 
__________________________________________________________________________________________________
activation_37 (Activation)      (None, 14, 14, 560)  0           concatenate_32[0][0]             
__________________________________________________________________________________________________
batch_normalization_37 (BatchNo (None, 14, 14, 560)  2240        activation_37[0][0]              
__________________________________________________________________________________________________
conv2d_38 (Conv2D)              (None, 14, 14, 16)   80656       batch_normalization_37[0][0]     
__________________________________________________________________________________________________
dropout_37 (Dropout)            (None, 14, 14, 16)   0           conv2d_38[0][0]                  
__________________________________________________________________________________________________
concatenate_33 (Concatenate)    (None, 14, 14, 576)  0           concatenate_32[0][0]             
                                                                 dropout_37[0][0]                 
__________________________________________________________________________________________________
activation_38 (Activation)      (None, 14, 14, 576)  0           concatenate_33[0][0]             
__________________________________________________________________________________________________
batch_normalization_38 (BatchNo (None, 14, 14, 576)  2304        activation_38[0][0]              
__________________________________________________________________________________________________
conv2d_39 (Conv2D)              (None, 14, 14, 16)   82960       batch_normalization_38[0][0]     
__________________________________________________________________________________________________
dropout_38 (Dropout)            (None, 14, 14, 16)   0           conv2d_39[0][0]                  
__________________________________________________________________________________________________
concatenate_34 (Concatenate)    (None, 14, 14, 592)  0           concatenate_33[0][0]             
                                                                 dropout_38[0][0]                 
__________________________________________________________________________________________________
activation_39 (Activation)      (None, 14, 14, 592)  0           concatenate_34[0][0]             
__________________________________________________________________________________________________
batch_normalization_39 (BatchNo (None, 14, 14, 592)  2368        activation_39[0][0]              
__________________________________________________________________________________________________
conv2d_40 (Conv2D)              (None, 14, 14, 16)   85264       batch_normalization_39[0][0]     
__________________________________________________________________________________________________
dropout_39 (Dropout)            (None, 14, 14, 16)   0           conv2d_40[0][0]                  
__________________________________________________________________________________________________
concatenate_35 (Concatenate)    (None, 14, 14, 608)  0           concatenate_34[0][0]             
                                                                 dropout_39[0][0]                 
__________________________________________________________________________________________________
activation_40 (Activation)      (None, 14, 14, 608)  0           concatenate_35[0][0]             
__________________________________________________________________________________________________
batch_normalization_40 (BatchNo (None, 14, 14, 608)  2432        activation_40[0][0]              
__________________________________________________________________________________________________
conv2d_41 (Conv2D)              (None, 14, 14, 16)   87568       batch_normalization_40[0][0]     
__________________________________________________________________________________________________
dropout_40 (Dropout)            (None, 14, 14, 16)   0           conv2d_41[0][0]                  
__________________________________________________________________________________________________
concatenate_36 (Concatenate)    (None, 14, 14, 624)  0           concatenate_35[0][0]             
                                                                 dropout_40[0][0]                 
__________________________________________________________________________________________________
activation_41 (Activation)      (None, 14, 14, 624)  0           concatenate_36[0][0]             
__________________________________________________________________________________________________
batch_normalization_41 (BatchNo (None, 14, 14, 624)  2496        activation_41[0][0]              
__________________________________________________________________________________________________
conv2d_42 (Conv2D)              (None, 14, 14, 16)   89872       batch_normalization_41[0][0]     
__________________________________________________________________________________________________
dropout_41 (Dropout)            (None, 14, 14, 16)   0           conv2d_42[0][0]                  
__________________________________________________________________________________________________
concatenate_37 (Concatenate)    (None, 14, 14, 640)  0           concatenate_36[0][0]             
                                                                 dropout_41[0][0]                 
__________________________________________________________________________________________________
activation_42 (Activation)      (None, 14, 14, 640)  0           concatenate_37[0][0]             
__________________________________________________________________________________________________
batch_normalization_42 (BatchNo (None, 14, 14, 640)  2560        activation_42[0][0]              
__________________________________________________________________________________________________
conv2d_43 (Conv2D)              (None, 14, 14, 16)   92176       batch_normalization_42[0][0]     
__________________________________________________________________________________________________
dropout_42 (Dropout)            (None, 14, 14, 16)   0           conv2d_43[0][0]                  
__________________________________________________________________________________________________
concatenate_38 (Concatenate)    (None, 14, 14, 656)  0           concatenate_37[0][0]             
                                                                 dropout_42[0][0]                 
__________________________________________________________________________________________________
activation_43 (Activation)      (None, 14, 14, 656)  0           concatenate_38[0][0]             
__________________________________________________________________________________________________
batch_normalization_43 (BatchNo (None, 14, 14, 656)  2624        activation_43[0][0]              
__________________________________________________________________________________________________
conv2d_44 (Conv2D)              (None, 7, 7, 656)    430992      batch_normalization_43[0][0]     
__________________________________________________________________________________________________
dropout_43 (Dropout)            (None, 7, 7, 656)    0           conv2d_44[0][0]                  
__________________________________________________________________________________________________
activation_44 (Activation)      (None, 7, 7, 656)    0           dropout_43[0][0]                 
__________________________________________________________________________________________________
batch_normalization_44 (BatchNo (None, 7, 7, 656)    2624        activation_44[0][0]              
__________________________________________________________________________________________________
conv2d_45 (Conv2D)              (None, 7, 7, 16)     94480       batch_normalization_44[0][0]     
__________________________________________________________________________________________________
dropout_44 (Dropout)            (None, 7, 7, 16)     0           conv2d_45[0][0]                  
__________________________________________________________________________________________________
concatenate_39 (Concatenate)    (None, 7, 7, 672)    0           dropout_43[0][0]                 
                                                                 dropout_44[0][0]                 
__________________________________________________________________________________________________
activation_45 (Activation)      (None, 7, 7, 672)    0           concatenate_39[0][0]             
__________________________________________________________________________________________________
batch_normalization_45 (BatchNo (None, 7, 7, 672)    2688        activation_45[0][0]              
__________________________________________________________________________________________________
conv2d_46 (Conv2D)              (None, 7, 7, 16)     96784       batch_normalization_45[0][0]     
__________________________________________________________________________________________________
dropout_45 (Dropout)            (None, 7, 7, 16)     0           conv2d_46[0][0]                  
__________________________________________________________________________________________________
concatenate_40 (Concatenate)    (None, 7, 7, 688)    0           concatenate_39[0][0]             
                                                                 dropout_45[0][0]                 
__________________________________________________________________________________________________
activation_46 (Activation)      (None, 7, 7, 688)    0           concatenate_40[0][0]             
__________________________________________________________________________________________________
batch_normalization_46 (BatchNo (None, 7, 7, 688)    2752        activation_46[0][0]              
__________________________________________________________________________________________________
conv2d_47 (Conv2D)              (None, 7, 7, 16)     99088       batch_normalization_46[0][0]     
__________________________________________________________________________________________________
dropout_46 (Dropout)            (None, 7, 7, 16)     0           conv2d_47[0][0]                  
__________________________________________________________________________________________________
concatenate_41 (Concatenate)    (None, 7, 7, 704)    0           concatenate_40[0][0]             
                                                                 dropout_46[0][0]                 
__________________________________________________________________________________________________
activation_47 (Activation)      (None, 7, 7, 704)    0           concatenate_41[0][0]             
__________________________________________________________________________________________________
batch_normalization_47 (BatchNo (None, 7, 7, 704)    2816        activation_47[0][0]              
__________________________________________________________________________________________________
conv2d_48 (Conv2D)              (None, 7, 7, 16)     101392      batch_normalization_47[0][0]     
__________________________________________________________________________________________________
dropout_47 (Dropout)            (None, 7, 7, 16)     0           conv2d_48[0][0]                  
__________________________________________________________________________________________________
concatenate_42 (Concatenate)    (None, 7, 7, 720)    0           concatenate_41[0][0]             
                                                                 dropout_47[0][0]                 
__________________________________________________________________________________________________
activation_48 (Activation)      (None, 7, 7, 720)    0           concatenate_42[0][0]             
__________________________________________________________________________________________________
batch_normalization_48 (BatchNo (None, 7, 7, 720)    2880        activation_48[0][0]              
__________________________________________________________________________________________________
conv2d_49 (Conv2D)              (None, 7, 7, 16)     103696      batch_normalization_48[0][0]     
__________________________________________________________________________________________________
dropout_48 (Dropout)            (None, 7, 7, 16)     0           conv2d_49[0][0]                  
__________________________________________________________________________________________________
concatenate_43 (Concatenate)    (None, 7, 7, 736)    0           concatenate_42[0][0]             
                                                                 dropout_48[0][0]                 
__________________________________________________________________________________________________
activation_49 (Activation)      (None, 7, 7, 736)    0           concatenate_43[0][0]             
__________________________________________________________________________________________________
batch_normalization_49 (BatchNo (None, 7, 7, 736)    2944        activation_49[0][0]              
__________________________________________________________________________________________________
conv2d_50 (Conv2D)              (None, 7, 7, 16)     106000      batch_normalization_49[0][0]     
__________________________________________________________________________________________________
dropout_49 (Dropout)            (None, 7, 7, 16)     0           conv2d_50[0][0]                  
__________________________________________________________________________________________________
concatenate_44 (Concatenate)    (None, 7, 7, 752)    0           concatenate_43[0][0]             
                                                                 dropout_49[0][0]                 
__________________________________________________________________________________________________
activation_50 (Activation)      (None, 7, 7, 752)    0           concatenate_44[0][0]             
__________________________________________________________________________________________________
batch_normalization_50 (BatchNo (None, 7, 7, 752)    3008        activation_50[0][0]              
__________________________________________________________________________________________________
conv2d_51 (Conv2D)              (None, 7, 7, 16)     108304      batch_normalization_50[0][0]     
__________________________________________________________________________________________________
dropout_50 (Dropout)            (None, 7, 7, 16)     0           conv2d_51[0][0]                  
__________________________________________________________________________________________________
concatenate_45 (Concatenate)    (None, 7, 7, 768)    0           concatenate_44[0][0]             
                                                                 dropout_50[0][0]                 
__________________________________________________________________________________________________
activation_51 (Activation)      (None, 7, 7, 768)    0           concatenate_45[0][0]             
__________________________________________________________________________________________________
batch_normalization_51 (BatchNo (None, 7, 7, 768)    3072        activation_51[0][0]              
__________________________________________________________________________________________________
conv2d_52 (Conv2D)              (None, 7, 7, 16)     110608      batch_normalization_51[0][0]     
__________________________________________________________________________________________________
dropout_51 (Dropout)            (None, 7, 7, 16)     0           conv2d_52[0][0]                  
__________________________________________________________________________________________________
concatenate_46 (Concatenate)    (None, 7, 7, 784)    0           concatenate_45[0][0]             
                                                                 dropout_51[0][0]                 
__________________________________________________________________________________________________
activation_52 (Activation)      (None, 7, 7, 784)    0           concatenate_46[0][0]             
__________________________________________________________________________________________________
batch_normalization_52 (BatchNo (None, 7, 7, 784)    3136        activation_52[0][0]              
__________________________________________________________________________________________________
conv2d_53 (Conv2D)              (None, 7, 7, 16)     112912      batch_normalization_52[0][0]     
__________________________________________________________________________________________________
dropout_52 (Dropout)            (None, 7, 7, 16)     0           conv2d_53[0][0]                  
__________________________________________________________________________________________________
concatenate_47 (Concatenate)    (None, 7, 7, 800)    0           concatenate_46[0][0]             
                                                                 dropout_52[0][0]                 
__________________________________________________________________________________________________
activation_53 (Activation)      (None, 7, 7, 800)    0           concatenate_47[0][0]             
__________________________________________________________________________________________________
batch_normalization_53 (BatchNo (None, 7, 7, 800)    3200        activation_53[0][0]              
__________________________________________________________________________________________________
conv2d_54 (Conv2D)              (None, 7, 7, 16)     115216      batch_normalization_53[0][0]     
__________________________________________________________________________________________________
dropout_53 (Dropout)            (None, 7, 7, 16)     0           conv2d_54[0][0]                  
__________________________________________________________________________________________________
concatenate_48 (Concatenate)    (None, 7, 7, 816)    0           concatenate_47[0][0]             
                                                                 dropout_53[0][0]                 
__________________________________________________________________________________________________
activation_54 (Activation)      (None, 7, 7, 816)    0           concatenate_48[0][0]             
__________________________________________________________________________________________________
batch_normalization_54 (BatchNo (None, 7, 7, 816)    3264        activation_54[0][0]              
__________________________________________________________________________________________________
conv2d_55 (Conv2D)              (None, 7, 7, 16)     117520      batch_normalization_54[0][0]     
__________________________________________________________________________________________________
dropout_54 (Dropout)            (None, 7, 7, 16)     0           conv2d_55[0][0]                  
__________________________________________________________________________________________________
concatenate_49 (Concatenate)    (None, 7, 7, 832)    0           concatenate_48[0][0]             
                                                                 dropout_54[0][0]                 
__________________________________________________________________________________________________
activation_55 (Activation)      (None, 7, 7, 832)    0           concatenate_49[0][0]             
__________________________________________________________________________________________________
batch_normalization_55 (BatchNo (None, 7, 7, 832)    3328        activation_55[0][0]              
__________________________________________________________________________________________________
conv2d_56 (Conv2D)              (None, 7, 7, 16)     119824      batch_normalization_55[0][0]     
__________________________________________________________________________________________________
dropout_55 (Dropout)            (None, 7, 7, 16)     0           conv2d_56[0][0]                  
__________________________________________________________________________________________________
concatenate_50 (Concatenate)    (None, 7, 7, 848)    0           concatenate_49[0][0]             
                                                                 dropout_55[0][0]                 
__________________________________________________________________________________________________
activation_56 (Activation)      (None, 7, 7, 848)    0           concatenate_50[0][0]             
__________________________________________________________________________________________________
batch_normalization_56 (BatchNo (None, 7, 7, 848)    3392        activation_56[0][0]              
__________________________________________________________________________________________________
conv2d_57 (Conv2D)              (None, 7, 7, 16)     122128      batch_normalization_56[0][0]     
__________________________________________________________________________________________________
dropout_56 (Dropout)            (None, 7, 7, 16)     0           conv2d_57[0][0]                  
__________________________________________________________________________________________________
concatenate_51 (Concatenate)    (None, 7, 7, 864)    0           concatenate_50[0][0]             
                                                                 dropout_56[0][0]                 
__________________________________________________________________________________________________
activation_57 (Activation)      (None, 7, 7, 864)    0           concatenate_51[0][0]             
__________________________________________________________________________________________________
batch_normalization_57 (BatchNo (None, 7, 7, 864)    3456        activation_57[0][0]              
__________________________________________________________________________________________________
conv2d_58 (Conv2D)              (None, 7, 7, 16)     124432      batch_normalization_57[0][0]     
__________________________________________________________________________________________________
dropout_57 (Dropout)            (None, 7, 7, 16)     0           conv2d_58[0][0]                  
__________________________________________________________________________________________________
concatenate_52 (Concatenate)    (None, 7, 7, 880)    0           concatenate_51[0][0]             
                                                                 dropout_57[0][0]                 
__________________________________________________________________________________________________
activation_58 (Activation)      (None, 7, 7, 880)    0           concatenate_52[0][0]             
__________________________________________________________________________________________________
batch_normalization_58 (BatchNo (None, 7, 7, 880)    3520        activation_58[0][0]              
__________________________________________________________________________________________________
conv2d_59 (Conv2D)              (None, 7, 7, 16)     126736      batch_normalization_58[0][0]     
__________________________________________________________________________________________________
dropout_58 (Dropout)            (None, 7, 7, 16)     0           conv2d_59[0][0]                  
__________________________________________________________________________________________________
concatenate_54 (Concatenate)    (None, 7, 7, 240)    0           dropout_44[0][0]                 
                                                                 dropout_45[0][0]                 
                                                                 dropout_46[0][0]                 
                                                                 dropout_47[0][0]                 
                                                                 dropout_48[0][0]                 
…
                                                                 dropout_54[0][0]                 
                                                                 dropout_55[0][0]                 
                                                                 dropout_56[0][0]                 
                                                                 dropout_57[0][0]                 
                                                                 dropout_58[0][0]                 
__________________________________________________________________________________________________
conv2d_transpose_1 (Conv2DTrans (None, 14, 14, 240)  518640      concatenate_54[0][0]             
__________________________________________________________________________________________________
concatenate_55 (Concatenate)    (None, 14, 14, 896)  0           conv2d_transpose_1[0][0]         
                                                                 concatenate_38[0][0]             
__________________________________________________________________________________________________
activation_60 (Activation)      (None, 14, 14, 896)  0           concatenate_55[0][0]             
__________________________________________________________________________________________________
batch_normalization_60 (BatchNo (None, 14, 14, 896)  3584        activation_60[0][0]              
__________________________________________________________________________________________________
conv2d_61 (Conv2D)              (None, 14, 14, 16)   129040      batch_normalization_60[0][0]     
__________________________________________________________________________________________________
dropout_60 (Dropout)            (None, 14, 14, 16)   0           conv2d_61[0][0]                  
__________________________________________________________________________________________________
concatenate_56 (Concatenate)    (None, 14, 14, 912)  0           concatenate_55[0][0]             
                                                                 dropout_60[0][0]                 
__________________________________________________________________________________________________
activation_61 (Activation)      (None, 14, 14, 912)  0           concatenate_56[0][0]             
__________________________________________________________________________________________________
batch_normalization_61 (BatchNo (None, 14, 14, 912)  3648        activation_61[0][0]              
__________________________________________________________________________________________________
conv2d_62 (Conv2D)              (None, 14, 14, 16)   131344      batch_normalization_61[0][0]     
__________________________________________________________________________________________________
dropout_61 (Dropout)            (None, 14, 14, 16)   0           conv2d_62[0][0]                  
__________________________________________________________________________________________________
concatenate_57 (Concatenate)    (None, 14, 14, 928)  0           concatenate_56[0][0]             
                                                                 dropout_61[0][0]                 
__________________________________________________________________________________________________
activation_62 (Activation)      (None, 14, 14, 928)  0           concatenate_57[0][0]             
__________________________________________________________________________________________________
batch_normalization_62 (BatchNo (None, 14, 14, 928)  3712        activation_62[0][0]              
__________________________________________________________________________________________________
conv2d_63 (Conv2D)              (None, 14, 14, 16)   133648      batch_normalization_62[0][0]     
__________________________________________________________________________________________________
dropout_62 (Dropout)            (None, 14, 14, 16)   0           conv2d_63[0][0]                  
__________________________________________________________________________________________________
concatenate_58 (Concatenate)    (None, 14, 14, 944)  0           concatenate_57[0][0]             
                                                                 dropout_62[0][0]                 
__________________________________________________________________________________________________
activation_63 (Activation)      (None, 14, 14, 944)  0           concatenate_58[0][0]             
__________________________________________________________________________________________________
batch_normalization_63 (BatchNo (None, 14, 14, 944)  3776        activation_63[0][0]              
__________________________________________________________________________________________________
conv2d_64 (Conv2D)              (None, 14, 14, 16)   135952      batch_normalization_63[0][0]     
__________________________________________________________________________________________________
dropout_63 (Dropout)            (None, 14, 14, 16)   0           conv2d_64[0][0]                  
__________________________________________________________________________________________________
concatenate_59 (Concatenate)    (None, 14, 14, 960)  0           concatenate_58[0][0]             
                                                                 dropout_63[0][0]                 
__________________________________________________________________________________________________
activation_64 (Activation)      (None, 14, 14, 960)  0           concatenate_59[0][0]             
__________________________________________________________________________________________________
batch_normalization_64 (BatchNo (None, 14, 14, 960)  3840        activation_64[0][0]              
__________________________________________________________________________________________________
conv2d_65 (Conv2D)              (None, 14, 14, 16)   138256      batch_normalization_64[0][0]     
__________________________________________________________________________________________________
dropout_64 (Dropout)            (None, 14, 14, 16)   0           conv2d_65[0][0]                  
__________________________________________________________________________________________________
concatenate_60 (Concatenate)    (None, 14, 14, 976)  0           concatenate_59[0][0]             
                                                                 dropout_64[0][0]                 
__________________________________________________________________________________________________
activation_65 (Activation)      (None, 14, 14, 976)  0           concatenate_60[0][0]             
__________________________________________________________________________________________________
batch_normalization_65 (BatchNo (None, 14, 14, 976)  3904        activation_65[0][0]              
__________________________________________________________________________________________________
conv2d_66 (Conv2D)              (None, 14, 14, 16)   140560      batch_normalization_65[0][0]     
__________________________________________________________________________________________________
dropout_65 (Dropout)            (None, 14, 14, 16)   0           conv2d_66[0][0]                  
__________________________________________________________________________________________________
concatenate_61 (Concatenate)    (None, 14, 14, 992)  0           concatenate_60[0][0]             
                                                                 dropout_65[0][0]                 
__________________________________________________________________________________________________
activation_66 (Activation)      (None, 14, 14, 992)  0           concatenate_61[0][0]             
__________________________________________________________________________________________________
batch_normalization_66 (BatchNo (None, 14, 14, 992)  3968        activation_66[0][0]              
__________________________________________________________________________________________________
conv2d_67 (Conv2D)              (None, 14, 14, 16)   142864      batch_normalization_66[0][0]     
__________________________________________________________________________________________________
dropout_66 (Dropout)            (None, 14, 14, 16)   0           conv2d_67[0][0]                  
__________________________________________________________________________________________________
concatenate_62 (Concatenate)    (None, 14, 14, 1008) 0           concatenate_61[0][0]             
                                                                 dropout_66[0][0]                 
__________________________________________________________________________________________________
activation_67 (Activation)      (None, 14, 14, 1008) 0           concatenate_62[0][0]             
__________________________________________________________________________________________________
batch_normalization_67 (BatchNo (None, 14, 14, 1008) 4032        activation_67[0][0]              
__________________________________________________________________________________________________
conv2d_68 (Conv2D)              (None, 14, 14, 16)   145168      batch_normalization_67[0][0]     
__________________________________________________________________________________________________
dropout_67 (Dropout)            (None, 14, 14, 16)   0           conv2d_68[0][0]                  
__________________________________________________________________________________________________
concatenate_63 (Concatenate)    (None, 14, 14, 1024) 0           concatenate_62[0][0]             
                                                                 dropout_67[0][0]                 
__________________________________________________________________________________________________
activation_68 (Activation)      (None, 14, 14, 1024) 0           concatenate_63[0][0]             
__________________________________________________________________________________________________
batch_normalization_68 (BatchNo (None, 14, 14, 1024) 4096        activation_68[0][0]              
__________________________________________________________________________________________________
conv2d_69 (Conv2D)              (None, 14, 14, 16)   147472      batch_normalization_68[0][0]     
__________________________________________________________________________________________________
dropout_68 (Dropout)            (None, 14, 14, 16)   0           conv2d_69[0][0]                  
__________________________________________________________________________________________________
concatenate_64 (Concatenate)    (None, 14, 14, 1040) 0           concatenate_63[0][0]             
                                                                 dropout_68[0][0]                 
__________________________________________________________________________________________________
activation_69 (Activation)      (None, 14, 14, 1040) 0           concatenate_64[0][0]             
__________________________________________________________________________________________________
batch_normalization_69 (BatchNo (None, 14, 14, 1040) 4160        activation_69[0][0]              
__________________________________________________________________________________________________
conv2d_70 (Conv2D)              (None, 14, 14, 16)   149776      batch_normalization_69[0][0]     
__________________________________________________________________________________________________
dropout_69 (Dropout)            (None, 14, 14, 16)   0           conv2d_70[0][0]                  
__________________________________________________________________________________________________
concatenate_65 (Concatenate)    (None, 14, 14, 1056) 0           concatenate_64[0][0]             
                                                                 dropout_69[0][0]                 
__________________________________________________________________________________________________
activation_70 (Activation)      (None, 14, 14, 1056) 0           concatenate_65[0][0]             
__________________________________________________________________________________________________
batch_normalization_70 (BatchNo (None, 14, 14, 1056) 4224        activation_70[0][0]              
__________________________________________________________________________________________________
conv2d_71 (Conv2D)              (None, 14, 14, 16)   152080      batch_normalization_70[0][0]     
__________________________________________________________________________________________________
dropout_70 (Dropout)            (None, 14, 14, 16)   0           conv2d_71[0][0]                  
__________________________________________________________________________________________________
concatenate_66 (Concatenate)    (None, 14, 14, 1072) 0           concatenate_65[0][0]             
                                                                 dropout_70[0][0]                 
__________________________________________________________________________________________________
activation_71 (Activation)      (None, 14, 14, 1072) 0           concatenate_66[0][0]             
__________________________________________________________________________________________________
batch_normalization_71 (BatchNo (None, 14, 14, 1072) 4288        activation_71[0][0]              
__________________________________________________________________________________________________
conv2d_72 (Conv2D)              (None, 14, 14, 16)   154384      batch_normalization_71[0][0]     
__________________________________________________________________________________________________
dropout_71 (Dropout)            (None, 14, 14, 16)   0           conv2d_72[0][0]                  
__________________________________________________________________________________________________
concatenate_68 (Concatenate)    (None, 14, 14, 192)  0           dropout_60[0][0]                 
                                                                 dropout_61[0][0]                 
                                                                 dropout_62[0][0]                 
                                                                 dropout_63[0][0]                 
                                                                 dropout_64[0][0]                 
…
                                                                 dropout_67[0][0]                 
                                                                 dropout_68[0][0]                 
                                                                 dropout_69[0][0]                 
                                                                 dropout_70[0][0]                 
                                                                 dropout_71[0][0]                 
__________________________________________________________________________________________________
conv2d_transpose_2 (Conv2DTrans (None, 28, 28, 192)  331968      concatenate_68[0][0]             
__________________________________________________________________________________________________
concatenate_69 (Concatenate)    (None, 28, 28, 656)  0           conv2d_transpose_2[0][0]         
                                                                 concatenate_26[0][0]             
__________________________________________________________________________________________________
activation_72 (Activation)      (None, 28, 28, 656)  0           concatenate_69[0][0]             
__________________________________________________________________________________________________
batch_normalization_72 (BatchNo (None, 28, 28, 656)  2624        activation_72[0][0]              
__________________________________________________________________________________________________
conv2d_73 (Conv2D)              (None, 28, 28, 16)   94480       batch_normalization_72[0][0]     
__________________________________________________________________________________________________
dropout_72 (Dropout)            (None, 28, 28, 16)   0           conv2d_73[0][0]                  
__________________________________________________________________________________________________
concatenate_70 (Concatenate)    (None, 28, 28, 672)  0           concatenate_69[0][0]             
                                                                 dropout_72[0][0]                 
__________________________________________________________________________________________________
activation_73 (Activation)      (None, 28, 28, 672)  0           concatenate_70[0][0]             
__________________________________________________________________________________________________
batch_normalization_73 (BatchNo (None, 28, 28, 672)  2688        activation_73[0][0]              
__________________________________________________________________________________________________
conv2d_74 (Conv2D)              (None, 28, 28, 16)   96784       batch_normalization_73[0][0]     
__________________________________________________________________________________________________
dropout_73 (Dropout)            (None, 28, 28, 16)   0           conv2d_74[0][0]                  
__________________________________________________________________________________________________
concatenate_71 (Concatenate)    (None, 28, 28, 688)  0           concatenate_70[0][0]             
                                                                 dropout_73[0][0]                 
__________________________________________________________________________________________________
activation_74 (Activation)      (None, 28, 28, 688)  0           concatenate_71[0][0]             
__________________________________________________________________________________________________
batch_normalization_74 (BatchNo (None, 28, 28, 688)  2752        activation_74[0][0]              
__________________________________________________________________________________________________
conv2d_75 (Conv2D)              (None, 28, 28, 16)   99088       batch_normalization_74[0][0]     
__________________________________________________________________________________________________
dropout_74 (Dropout)            (None, 28, 28, 16)   0           conv2d_75[0][0]                  
__________________________________________________________________________________________________
concatenate_72 (Concatenate)    (None, 28, 28, 704)  0           concatenate_71[0][0]             
                                                                 dropout_74[0][0]                 
__________________________________________________________________________________________________
activation_75 (Activation)      (None, 28, 28, 704)  0           concatenate_72[0][0]             
__________________________________________________________________________________________________
batch_normalization_75 (BatchNo (None, 28, 28, 704)  2816        activation_75[0][0]              
__________________________________________________________________________________________________
conv2d_76 (Conv2D)              (None, 28, 28, 16)   101392      batch_normalization_75[0][0]     
__________________________________________________________________________________________________
dropout_75 (Dropout)            (None, 28, 28, 16)   0           conv2d_76[0][0]                  
__________________________________________________________________________________________________
concatenate_73 (Concatenate)    (None, 28, 28, 720)  0           concatenate_72[0][0]             
                                                                 dropout_75[0][0]                 
__________________________________________________________________________________________________
activation_76 (Activation)      (None, 28, 28, 720)  0           concatenate_73[0][0]             
__________________________________________________________________________________________________
batch_normalization_76 (BatchNo (None, 28, 28, 720)  2880        activation_76[0][0]              
__________________________________________________________________________________________________
conv2d_77 (Conv2D)              (None, 28, 28, 16)   103696      batch_normalization_76[0][0]     
__________________________________________________________________________________________________
dropout_76 (Dropout)            (None, 28, 28, 16)   0           conv2d_77[0][0]                  
__________________________________________________________________________________________________
concatenate_74 (Concatenate)    (None, 28, 28, 736)  0           concatenate_73[0][0]             
                                                                 dropout_76[0][0]                 
__________________________________________________________________________________________________
activation_77 (Activation)      (None, 28, 28, 736)  0           concatenate_74[0][0]             
__________________________________________________________________________________________________
batch_normalization_77 (BatchNo (None, 28, 28, 736)  2944        activation_77[0][0]              
__________________________________________________________________________________________________
conv2d_78 (Conv2D)              (None, 28, 28, 16)   106000      batch_normalization_77[0][0]     
__________________________________________________________________________________________________
dropout_77 (Dropout)            (None, 28, 28, 16)   0           conv2d_78[0][0]                  
__________________________________________________________________________________________________
concatenate_75 (Concatenate)    (None, 28, 28, 752)  0           concatenate_74[0][0]             
                                                                 dropout_77[0][0]                 
__________________________________________________________________________________________________
activation_78 (Activation)      (None, 28, 28, 752)  0           concatenate_75[0][0]             
__________________________________________________________________________________________________
batch_normalization_78 (BatchNo (None, 28, 28, 752)  3008        activation_78[0][0]              
__________________________________________________________________________________________________
conv2d_79 (Conv2D)              (None, 28, 28, 16)   108304      batch_normalization_78[0][0]     
__________________________________________________________________________________________________
dropout_78 (Dropout)            (None, 28, 28, 16)   0           conv2d_79[0][0]                  
__________________________________________________________________________________________________
concatenate_76 (Concatenate)    (None, 28, 28, 768)  0           concatenate_75[0][0]             
                                                                 dropout_78[0][0]                 
__________________________________________________________________________________________________
activation_79 (Activation)      (None, 28, 28, 768)  0           concatenate_76[0][0]             
__________________________________________________________________________________________________
batch_normalization_79 (BatchNo (None, 28, 28, 768)  3072        activation_79[0][0]              
__________________________________________________________________________________________________
conv2d_80 (Conv2D)              (None, 28, 28, 16)   110608      batch_normalization_79[0][0]     
__________________________________________________________________________________________________
dropout_79 (Dropout)            (None, 28, 28, 16)   0           conv2d_80[0][0]                  
__________________________________________________________________________________________________
concatenate_77 (Concatenate)    (None, 28, 28, 784)  0           concatenate_76[0][0]             
                                                                 dropout_79[0][0]                 
__________________________________________________________________________________________________
activation_80 (Activation)      (None, 28, 28, 784)  0           concatenate_77[0][0]             
__________________________________________________________________________________________________
batch_normalization_80 (BatchNo (None, 28, 28, 784)  3136        activation_80[0][0]              
__________________________________________________________________________________________________
conv2d_81 (Conv2D)              (None, 28, 28, 16)   112912      batch_normalization_80[0][0]     
__________________________________________________________________________________________________
dropout_80 (Dropout)            (None, 28, 28, 16)   0           conv2d_81[0][0]                  
__________________________________________________________________________________________________
concatenate_78 (Concatenate)    (None, 28, 28, 800)  0           concatenate_77[0][0]             
                                                                 dropout_80[0][0]                 
__________________________________________________________________________________________________
activation_81 (Activation)      (None, 28, 28, 800)  0           concatenate_78[0][0]             
__________________________________________________________________________________________________
batch_normalization_81 (BatchNo (None, 28, 28, 800)  3200        activation_81[0][0]              
__________________________________________________________________________________________________
conv2d_82 (Conv2D)              (None, 28, 28, 16)   115216      batch_normalization_81[0][0]     
__________________________________________________________________________________________________
dropout_81 (Dropout)            (None, 28, 28, 16)   0           conv2d_82[0][0]                  
__________________________________________________________________________________________________
concatenate_80 (Concatenate)    (None, 28, 28, 160)  0           dropout_72[0][0]                 
                                                                 dropout_73[0][0]                 
                                                                 dropout_74[0][0]                 
                                                                 dropout_75[0][0]                 
                                                                 dropout_76[0][0]                 
                                                                 dropout_77[0][0]                 
                                                                 dropout_78[0][0]                 
                                                                 dropout_79[0][0]                 
                                                                 dropout_80[0][0]                 
                                                                 dropout_81[0][0]                 
__________________________________________________________________________________________________
conv2d_transpose_3 (Conv2DTrans (None, 56, 56, 160)  230560      concatenate_80[0][0]             
__________________________________________________________________________________________________
concatenate_81 (Concatenate)    (None, 56, 56, 464)  0           conv2d_transpose_3[0][0]         
                                                                 concatenate_16[0][0]             
__________________________________________________________________________________________________
activation_82 (Activation)      (None, 56, 56, 464)  0           concatenate_81[0][0]             
__________________________________________________________________________________________________
batch_normalization_82 (BatchNo (None, 56, 56, 464)  1856        activation_82[0][0]              
__________________________________________________________________________________________________
conv2d_83 (Conv2D)              (None, 56, 56, 16)   66832       batch_normalization_82[0][0]     
__________________________________________________________________________________________________
dropout_82 (Dropout)            (None, 56, 56, 16)   0           conv2d_83[0][0]                  
__________________________________________________________________________________________________
concatenate_82 (Concatenate)    (None, 56, 56, 480)  0           concatenate_81[0][0]             
                                                                 dropout_82[0][0]                 
__________________________________________________________________________________________________
activation_83 (Activation)      (None, 56, 56, 480)  0           concatenate_82[0][0]             
__________________________________________________________________________________________________
batch_normalization_83 (BatchNo (None, 56, 56, 480)  1920        activation_83[0][0]              
__________________________________________________________________________________________________
conv2d_84 (Conv2D)              (None, 56, 56, 16)   69136       batch_normalization_83[0][0]     
__________________________________________________________________________________________________
dropout_83 (Dropout)            (None, 56, 56, 16)   0           conv2d_84[0][0]                  
__________________________________________________________________________________________________
concatenate_83 (Concatenate)    (None, 56, 56, 496)  0           concatenate_82[0][0]             
                                                                 dropout_83[0][0]                 
__________________________________________________________________________________________________
activation_84 (Activation)      (None, 56, 56, 496)  0           concatenate_83[0][0]             
__________________________________________________________________________________________________
batch_normalization_84 (BatchNo (None, 56, 56, 496)  1984        activation_84[0][0]              
__________________________________________________________________________________________________
conv2d_85 (Conv2D)              (None, 56, 56, 16)   71440       batch_normalization_84[0][0]     
__________________________________________________________________________________________________
dropout_84 (Dropout)            (None, 56, 56, 16)   0           conv2d_85[0][0]                  
__________________________________________________________________________________________________
concatenate_84 (Concatenate)    (None, 56, 56, 512)  0           concatenate_83[0][0]             
                                                                 dropout_84[0][0]                 
__________________________________________________________________________________________________
activation_85 (Activation)      (None, 56, 56, 512)  0           concatenate_84[0][0]             
__________________________________________________________________________________________________
batch_normalization_85 (BatchNo (None, 56, 56, 512)  2048        activation_85[0][0]              
__________________________________________________________________________________________________
conv2d_86 (Conv2D)              (None, 56, 56, 16)   73744       batch_normalization_85[0][0]     
__________________________________________________________________________________________________
dropout_85 (Dropout)            (None, 56, 56, 16)   0           conv2d_86[0][0]                  
__________________________________________________________________________________________________
concatenate_85 (Concatenate)    (None, 56, 56, 528)  0           concatenate_84[0][0]             
                                                                 dropout_85[0][0]                 
__________________________________________________________________________________________________
activation_86 (Activation)      (None, 56, 56, 528)  0           concatenate_85[0][0]             
__________________________________________________________________________________________________
batch_normalization_86 (BatchNo (None, 56, 56, 528)  2112        activation_86[0][0]              
__________________________________________________________________________________________________
conv2d_87 (Conv2D)              (None, 56, 56, 16)   76048       batch_normalization_86[0][0]     
__________________________________________________________________________________________________
dropout_86 (Dropout)            (None, 56, 56, 16)   0           conv2d_87[0][0]                  
__________________________________________________________________________________________________
concatenate_86 (Concatenate)    (None, 56, 56, 544)  0           concatenate_85[0][0]             
                                                                 dropout_86[0][0]                 
__________________________________________________________________________________________________
activation_87 (Activation)      (None, 56, 56, 544)  0           concatenate_86[0][0]             
__________________________________________________________________________________________________
batch_normalization_87 (BatchNo (None, 56, 56, 544)  2176        activation_87[0][0]              
__________________________________________________________________________________________________
conv2d_88 (Conv2D)              (None, 56, 56, 16)   78352       batch_normalization_87[0][0]     
__________________________________________________________________________________________________
dropout_87 (Dropout)            (None, 56, 56, 16)   0           conv2d_88[0][0]                  
__________________________________________________________________________________________________
concatenate_87 (Concatenate)    (None, 56, 56, 560)  0           concatenate_86[0][0]             
                                                                 dropout_87[0][0]                 
__________________________________________________________________________________________________
activation_88 (Activation)      (None, 56, 56, 560)  0           concatenate_87[0][0]             
__________________________________________________________________________________________________
batch_normalization_88 (BatchNo (None, 56, 56, 560)  2240        activation_88[0][0]              
__________________________________________________________________________________________________
conv2d_89 (Conv2D)              (None, 56, 56, 16)   80656       batch_normalization_88[0][0]     
__________________________________________________________________________________________________
dropout_88 (Dropout)            (None, 56, 56, 16)   0           conv2d_89[0][0]                  
__________________________________________________________________________________________________
concatenate_89 (Concatenate)    (None, 56, 56, 112)  0           dropout_82[0][0]                 
                                                                 dropout_83[0][0]                 
                                                                 dropout_84[0][0]                 
                                                                 dropout_85[0][0]                 
                                                                 dropout_86[0][0]                 
…
                                                                 concatenate_9[0][0]              
__________________________________________________________________________________________________
activation_89 (Activation)      (None, 112, 112, 304 0           concatenate_90[0][0]             
__________________________________________________________________________________________________
batch_normalization_89 (BatchNo (None, 112, 112, 304 1216        activation_89[0][0]              
__________________________________________________________________________________________________
conv2d_90 (Conv2D)              (None, 112, 112, 16) 43792       batch_normalization_89[0][0]     
__________________________________________________________________________________________________
dropout_89 (Dropout)            (None, 112, 112, 16) 0           conv2d_90[0][0]                  
__________________________________________________________________________________________________
concatenate_91 (Concatenate)    (None, 112, 112, 320 0           concatenate_90[0][0]             
                                                                 dropout_89[0][0]                 
__________________________________________________________________________________________________
activation_90 (Activation)      (None, 112, 112, 320 0           concatenate_91[0][0]             
__________________________________________________________________________________________________
batch_normalization_90 (BatchNo (None, 112, 112, 320 1280        activation_90[0][0]              
__________________________________________________________________________________________________
conv2d_91 (Conv2D)              (None, 112, 112, 16) 46096       batch_normalization_90[0][0]     
__________________________________________________________________________________________________
dropout_90 (Dropout)            (None, 112, 112, 16) 0           conv2d_91[0][0]                  
__________________________________________________________________________________________________
concatenate_92 (Concatenate)    (None, 112, 112, 336 0           concatenate_91[0][0]             
                                                                 dropout_90[0][0]                 
__________________________________________________________________________________________________
activation_91 (Activation)      (None, 112, 112, 336 0           concatenate_92[0][0]             
__________________________________________________________________________________________________
batch_normalization_91 (BatchNo (None, 112, 112, 336 1344        activation_91[0][0]              
__________________________________________________________________________________________________
conv2d_92 (Conv2D)              (None, 112, 112, 16) 48400       batch_normalization_91[0][0]     
__________________________________________________________________________________________________
dropout_91 (Dropout)            (None, 112, 112, 16) 0           conv2d_92[0][0]                  
__________________________________________________________________________________________________
concatenate_93 (Concatenate)    (None, 112, 112, 352 0           concatenate_92[0][0]             
                                                                 dropout_91[0][0]                 
__________________________________________________________________________________________________
activation_92 (Activation)      (None, 112, 112, 352 0           concatenate_93[0][0]             
__________________________________________________________________________________________________
batch_normalization_92 (BatchNo (None, 112, 112, 352 1408        activation_92[0][0]              
__________________________________________________________________________________________________
conv2d_93 (Conv2D)              (None, 112, 112, 16) 50704       batch_normalization_92[0][0]     
__________________________________________________________________________________________________
dropout_92 (Dropout)            (None, 112, 112, 16) 0           conv2d_93[0][0]                  
__________________________________________________________________________________________________
concatenate_94 (Concatenate)    (None, 112, 112, 368 0           concatenate_93[0][0]             
                                                                 dropout_92[0][0]                 
__________________________________________________________________________________________________
activation_93 (Activation)      (None, 112, 112, 368 0           concatenate_94[0][0]             
__________________________________________________________________________________________________
batch_normalization_93 (BatchNo (None, 112, 112, 368 1472        activation_93[0][0]              
__________________________________________________________________________________________________
conv2d_94 (Conv2D)              (None, 112, 112, 16) 53008       batch_normalization_93[0][0]     
__________________________________________________________________________________________________
dropout_93 (Dropout)            (None, 112, 112, 16) 0           conv2d_94[0][0]                  
__________________________________________________________________________________________________
concatenate_96 (Concatenate)    (None, 112, 112, 80) 0           dropout_89[0][0]                 
                                                                 dropout_90[0][0]                 
                                                                 dropout_91[0][0]                 
                                                                 dropout_92[0][0]                 
                                                                 dropout_93[0][0]                 
__________________________________________________________________________________________________
conv2d_transpose_5 (Conv2DTrans (None, 224, 224, 80) 57680       concatenate_96[0][0]             
__________________________________________________________________________________________________
concatenate_97 (Concatenate)    (None, 224, 224, 192 0           conv2d_transpose_5[0][0]         
                                                                 concatenate_4[0][0]              
__________________________________________________________________________________________________
activation_94 (Activation)      (None, 224, 224, 192 0           concatenate_97[0][0]             
__________________________________________________________________________________________________
batch_normalization_94 (BatchNo (None, 224, 224, 192 768         activation_94[0][0]              
__________________________________________________________________________________________________
conv2d_95 (Conv2D)              (None, 224, 224, 16) 27664       batch_normalization_94[0][0]     
__________________________________________________________________________________________________
dropout_94 (Dropout)            (None, 224, 224, 16) 0           conv2d_95[0][0]                  
__________________________________________________________________________________________________
concatenate_98 (Concatenate)    (None, 224, 224, 208 0           concatenate_97[0][0]             
                                                                 dropout_94[0][0]                 
__________________________________________________________________________________________________
activation_95 (Activation)      (None, 224, 224, 208 0           concatenate_98[0][0]             
__________________________________________________________________________________________________
batch_normalization_95 (BatchNo (None, 224, 224, 208 832         activation_95[0][0]              
__________________________________________________________________________________________________
conv2d_96 (Conv2D)              (None, 224, 224, 16) 29968       batch_normalization_95[0][0]     
__________________________________________________________________________________________________
dropout_95 (Dropout)            (None, 224, 224, 16) 0           conv2d_96[0][0]                  
__________________________________________________________________________________________________
concatenate_99 (Concatenate)    (None, 224, 224, 224 0           concatenate_98[0][0]             
                                                                 dropout_95[0][0]                 
__________________________________________________________________________________________________
activation_96 (Activation)      (None, 224, 224, 224 0           concatenate_99[0][0]             
__________________________________________________________________________________________________
batch_normalization_96 (BatchNo (None, 224, 224, 224 896         activation_96[0][0]              
__________________________________________________________________________________________________
conv2d_97 (Conv2D)              (None, 224, 224, 16) 32272       batch_normalization_96[0][0]     
__________________________________________________________________________________________________
dropout_96 (Dropout)            (None, 224, 224, 16) 0           conv2d_97[0][0]                  
__________________________________________________________________________________________________
concatenate_100 (Concatenate)   (None, 224, 224, 240 0           concatenate_99[0][0]             
                                                                 dropout_96[0][0]                 
__________________________________________________________________________________________________
activation_97 (Activation)      (None, 224, 224, 240 0           concatenate_100[0][0]            
__________________________________________________________________________________________________
batch_normalization_97 (BatchNo (None, 224, 224, 240 960         activation_97[0][0]              
__________________________________________________________________________________________________
conv2d_98 (Conv2D)              (None, 224, 224, 16) 34576       batch_normalization_97[0][0]     
__________________________________________________________________________________________________
dropout_97 (Dropout)            (None, 224, 224, 16) 0           conv2d_98[0][0]                  
__________________________________________________________________________________________________
concatenate_101 (Concatenate)   (None, 224, 224, 256 0           concatenate_100[0][0]            
                                                                 dropout_97[0][0]                 
__________________________________________________________________________________________________
conv2d_99 (Conv2D)              (None, 224, 224, 3)  771         concatenate_101[0][0]            
__________________________________________________________________________________________________
activation_98 (Activation)      (None, 224, 224, 3)  0           conv2d_99[0][0]                  
==================================================================================================
Total params: 9,422,243
Trainable params: 9,319,171
Non-trainable params: 103,072
__________________________________________________________________________________________________
Epoch 1/30
 - 984s - loss: 0.7817 - acc: 0.3254 - mean_iou: 0.4994 - val_loss: 0.7991 - val_acc: 0.1231 - val_mean_iou: 0.5926
…
